docker/isaac-sim/bridge/policies/go2_jit.pt (torch, 768085 bytes, 8 tensors)

weight f4 [512, 45]
00000000: db49 4dbe 4fe8 c3bd c36c 9abe 1c3f 1c3f
00000010: 8285 233e 2f83 443d 47ae 80bd fa95 3abe
00000020: 3d2d 2e3f 1e8b b6be 0439 fe3b bd16 243e
00000030: 9d4a 043d 4d1d 933e cf3b f5bd ed3a fa3d
00000040: 9a8b ce3c 5cdd 99bd 0510 d0bd 4b92 fb3c
00000050: 505b 3bba 4783 11bf 7468 1f3e 669b 033e
00000060: 6d08 053d 835e 673c 0d22 ae3c 88ea babd
00000070: 2ffd a1be be09 143d 55c2 33be e380 9fbc
00000080: 4de9 cf3e 83cb ddbc 6481 cdbc ff57 623d
00000090: b30c 1bbc d4ea 15bd bc69 913c 0e3c 6cb9
000000a0: 647c bb3b 71cf 3b3c 6f3d 46bd 636a 95bb
000000b0: 9611 47bd 77a3 1d3e e34e f3bd 41a4 31be
000000c0: 1ce2 56be bae8 1fbe 3106 753d a5bf 363d
000000d0: 3a70 ed3d b5d1 8fbe cbee c43e 96b0 183e
000000e0: e821 c93d 2c1c d03d fae7 a4be d460 a9be
000000f0: 1daf 803e 02b9 08be 3762 45be 3e20 75bd
00000100: 596c 0fbe a9fd c63e 928f a4be 174b 7dbe
00000110: 0f52 12be a325 6bbe d2d9 66be 356a 4b3c
00000120: 441b 3cbe ab5a 973e 19dc 1abe d2a3 233f
00000130: 2cd6 a7be dd63 7a3d 1862 0f3d ad7f 28bc
00000140: 8732 e6bc 335b 4d3d 019c c5bb 606c 393d
00000150: 4e84 8ebc a45f febc b6c1 603d 7dea 91bd
00000160: f937 393d 3055 a7bc b70a f9bc 4aba 4bbe
00000170: eab4 2a3e 2588 cebe dc5c bbbb f31f 67bd
00000180: a118 acbd 5be7 243d 844b 3dbe ef84 583e
00000190: 4ed9 9f3d d71b 33ba ce9b d0bc 786b 4abe
000001a0: bf03 0c3e 4db1 0bbf 19f9 c83d 939c 46bd
000001b0: 91e1 d93d 6779 823e 0631 e73e 72fa bc3e
000001c0: 18f3 8a3e 3120 20be 06be 4c3d 657e a0be
000001d0: fa01 6bbc 1271 84bd fa50 42be ebae 753e
000001e0: 8874 4abe 16da c0bd 697c fa3e b92e 29bc
000001f0: be7f f83c b1ee 75bc c128 4fbd c0ed 743b
00000200: 7fc9 80bc 4364 d73b 8707 3c3d 9aa5 5fbc
00000210: 685a 2abd c523 83bc b6e1 e3bc 7a4d e5bd
00000220: 5d08 9e3e 7f4f 8d3e f9ad 333e 1470 a63d
00000230: 554a 7fbd f756 c43d ffe0 b93c 96ad 46be
00000240: b4e0 edbe 8081 47be a392 adbc 85cd 13bd
00000250: b57f c0bc 0b08 bdbe f6a2 003e 15a9 d03d
00000260: 5e06 a2bd 3ac6 7e3e 159b 06be 3ffe 283e
00000270: 64e4 5fbe 76a5 d0bd b897 db3d 9396 07be
00000280: a6c1 b2bd 6f37 8ebd 5e58 82be 5545 db3d
00000290: d71e 243e 90be aebd 5856 893e f4ba c83e
000002a0: 6a60 ec3b 585a d73b 9fd1 62bd e3b3 a13d
000002b0: 9f2a 70bd 8f32 c83c d90f e9bd 1a9d aabd
000002c0: 2599 29bd e0b2 d4bd d424 ea3d 61ed 0abe
000002d0: 8b04 183e 3243 ed3c 7e98 83be a27a cf3e
000002e0: f02f e3bc 160d b8bd 305c 7dbd 45a8 863d
000002f0: bc9c 45bc 642b 903c c06f 55be ddca b9be
00000300: 4c7a f13e 5149 c9bd 9b97 263e 4fcf f63d
00000310: 5ca2 8ebe 9d77 8d3e 111b 24bd 3123 9e3d
00000320: 14ad 2fbd a71f 803e 3e26 633e 2a41 07bd
00000330: 1001 033e 5d0f c13d 51fd 3fbe 0226 353e
00000340: 38d7 833d b8fa 84bd 7280 2d3e 93c8 1c3e
00000350: dd30 a23e 4b70 b4ba 096b 873c eed5 0d3d
00000360: cb76 c33b d1c5 0b3e 0dff 02bd fa88 e73c
00000370: 0c1c d23c 2f7d ffbd 7158 263e 9fcd 2cbc
00000380: d009 783c 48da 1e3d 480c 533e bc31 b43e
00000390: a61b 373e 967c 8bbe 4622 da3d 0f28 463d
000003a0: b634 87bc c519 f23e 7c3c d5bd e46b 4cbe
000003b0: 76c1 c1be 44c0 a23e d880 4b3e b8e3 9d3e
000003c0: 486f b13d 3ccc 82be 51cb 5a3e 4cd7 8ebe
000003d0: 1ec1 6b3e 069f a6be 8e97 80be 0ab6 88be
000003e0: 2658 613d 9035 0cbc 2b5b 543d 2bc5 14be
000003f0: 8c13 083d 0287 a93d 5f07 e23d 92d2 6d3e
-0.20047705 -0.09565794 -0.30161104 0.610338 0.15968898 0.04797667 -0.06283241 -0.18221274
0.6803778 -0.35653013 0.0077582616 0.16024299 0.03229772 0.28733292 -0.11974298 0.122182705
0.025213052 -0.07512924 -0.101593055 0.030709406 -0.00071470905 -0.5684094 0.1556719 0.12852249
0.03247874 0.014121654 0.021256471 -0.091267645 -0.31638476 0.036142103 -0.175546 -0.019470638
0.40607682 -0.027074581 -0.025086112 0.0552597 -0.009463477 -0.036600903 0.017750613 -0.00022529086
0.0057216156 0.011463032 -0.04839843 -0.0045598014 -0.048600756 0.15394388 -0.11880281 -0.17347814
-0.20984691 -0.15616122 0.059820358 0.04461636 0.11593671 -0.2808968 0.38463435 0.14911112
0.0982092 0.10161623 -0.32208234 -0.33081686 0.251336 -0.13351825 -0.19275747 -0.0598452
-0.14006175 0.38865402 -0.32140785 -0.24735676 -0.14289115 -0.22963576 -0.2254403 0.012415458
-0.18369776 0.29561362 -0.15123023 0.63921845 -0.32780588 0.061130393 0.03500566 -0.0102843465
-0.028100265 0.050135802 -0.00603056 0.04526937 -0.017397072 -0.031051464 0.054872237 -0.07124803
0.045219395 -0.020426363 -0.030400617 -0.19895282 0.16670576 -0.40338245 -0.005717857 -0.056426954
-0.08403135 0.0402597 -0.18485838 0.2114446 0.078051195 -0.00068324566 -0.025464918 -0.19767559
0.13673304 -0.54567415 0.098131366 -0.048489165 0.106387265 0.25483248 0.4515459 0.36909825
0.2713859 -0.1563728 0.049985908 -0.3134643 -0.014343733 -0.06466879 -0.18976203 0.23992507
-0.19771016 -0.094165966 0.48923042 -0.010326081 0.03033435 -0.015010522 -0.050575975 0.0037373155
-0.01572108 0.0065732314 0.045905616 -0.013650322 -0.041590124 -0.016008267 -0.027817588 -0.11196418
0.30865756 0.27599713 0.17546834 0.08126846 -0.062326748 0.095869 0.022690294 -0.19402155
-0.46460497 -0.19482994 -0.021188086 -0.03608467 -0.023498395 -0.369202 0.12562165 0.101885
-0.07911371 0.24880305 -0.13145097 0.16503237 -0.21864468 -0.10187809 0.107222974 -0.13241033
-0.08728342 -0.06944167 -0.25458044 0.107065834 0.1602739 -0.08532441 0.26823688 0.39205134
0.007213642 0.006572049 -0.05537569 0.07895639 -0.058634397 0.02443817 -0.11379976 -0.08330746
-0.041405816 -0.1038568 0.11432806 -0.13567115 0.14845483 0.028962705 -0.2570228 0.4052325
-0.02773282 -0.08986871 -0.061855495 0.065750636 -0.012061294 0.017598815 -0.2084341 -0.36287585
0.47163618 -0.09828437 0.1626877 0.1205126 -0.27858245 0.2763032 -0.040064875 0.07721556
-0.04288967 0.2502415 0.22182557 -0.03302113 0.12793374 0.094267584 -0.18748976 0.1769028
0.06437534 -0.06493133 0.16943529 0.15310888 0.31677905 -0.0013766376 0.01653053 0.034627847
0.005965089 0.1364968 -0.031981517 0.028263558 0.02564814 -0.12475049 0.16244675 -0.010547071
0.015139058 0.038782388 0.20610154 0.35194194 0.17881641 -0.2724349 0.106510684 0.048378047
-0.016504627 0.47285286 -0.10411927 -0.19963032 -0.3784291 0.31787312 0.19873369 0.30837798
0.08663803 -0.25546443 0.21366622 -0.27898633 0.23022887 -0.325432 -0.25115627 -0.26701385
0.055015706 -0.008557692 0.051844757 -0.14528339 0.033221766 0.08277704 0.11036562 0.23224857

bias f4 [512]
00000000: fc05 893d 2463 98bd 17f1 61bd c992 ccbd
00000010: 8950 febd a277 ea3c dabb 2ebd b6ff df3d
00000020: c031 e4bd 0f77 babd ce5e af3d d1f3 28bd
00000030: b5bb 873d c2ad d23d 73cb e0bc 18e5 e73d
00000040: 5fdd 513d 0e85 c5bd c3b5 553d 6e19 4c3c
00000050: 4380 633d 5d14 bb3b f3c3 733d 4bb8 863d
00000060: 7393 c0bc 800a 1fbc e6dd 99bd 3247 103e
00000070: 74d6 64bd 0e71 243c 1f5d cbbc 9611 a43a
00000080: fad8 fabd aec8 663d 2984 c3bd 337e a03d
00000090: 2534 f13d 46e4 0f3e aa30 173d 58a7 3fbd
000000a0: e6b6 a8bb 7dfd 60bc 957e eabd 0a14 63bd
000000b0: 3aa1 fe3d 404e 773d 3eb1 08bb ccf1 953b
000000c0: f659 93bd 2d41 873d 6b24 8abd 9f2d 773d
000000d0: ac28 9cbd e9cf 2b3d e8f4 7d3d fa40 d3bc
000000e0: e710 42bc 06bb 8dbd 7912 fbbd bfa8 eabc
000000f0: 54d4 e4bc 70c8 853d cf6b 283e 2e59 f3bb
00000100: 13a4 9a3c d65c 81bb 38d3 e0bd 146a 3cbd
00000110: 47a1 4c3d 549e e3bd e4a0 613c 2cc1 82bb
00000120: 2447 03be 39e4 0cbe c7d8 0bbd 7077 1fbe
00000130: 8796 a33d b8a5 a1bd 0154 0fbe 3102 b93d
00000140: b35c 7d3d 350d a3bd 1118 d43d adce a7bd
00000150: 0ae2 a9bc 655f bdbd e67f 393d 8ea4 b8bd
00000160: f161 d13c bac0 60bd f8ba af3c 0ca9 01bd
00000170: dde5 7e3d 86c0 46bd 6647 80bd a1a9 03bd
00000180: 3869 c8bd 690e 80bd 247a debd 7f96 90bd
00000190: 4121 7e3d d54c 593c 187d 9b3c 6e77 563d
000001a0: d41b e43c ef2d b8bd cde9 173e bdd3 2a3e
000001b0: 04de 163e d7ab 773d 0cd8 d0bd 1b8a 22be
000001c0: 63d3 17bb 724d 273e c45e 55bd 3864 7d3d
000001d0: 7673 ec3d ccc9 5f3d bcb4 a8bd b93e 1f3c
000001e0: 11e3 5e3b 1bf6 093e ae55 233d b3fa 4d3d
000001f0: 79da cb3d 5386 3f3d 6277 ba3d 712e 5bbd
00000200: 51df ba3d 0cf4 5cbe 3fcc 983c 0203 cabc
00000210: 69fe 6e3b a4ec 04be 9573 363d 15b7 993d
00000220: 7630 d73b c94d faba babd c2bd 4c4b 2cbe
00000230: 2416 a6bd b2ed 9ebd 461a 1f3d 74ea 943d
00000240: 8fe5 c23d 8b6c 16bc 376e 6bbd ad2b 02be
00000250: 8bc9 223c 6be7 6abd b5b3 65bc 8206 443c
00000260: b5c8 c8bd 84ef 4b3b 66c3 7c3d 6101 803c
00000270: 63cb 19be ddbe 08be 75e7 10bb 9fa1 40bd
00000280: b9e6 23be a68c 9abd ab23 eabc f615 973d
00000290: 6b88 34bd 799f 0c3e 8408 bcbd 0751 ac3d
000002a0: 62a0 633d c17b 363d 182e 2fbe c812 28bd
000002b0: ca7c c3bd 4a85 62bd 9ba6 083e f4ae 433d
000002c0: 073b 79bc 8275 eb3d 619b df3d 34e1 803d
000002d0: 6d4f 073d 4ca3 1ebd 0544 9c3d 1a57 43be
000002e0: 7b97 ebbd 9ff3 08be 5ac7 583d 41bc 47bd
000002f0: 4a6d 1e3e 2200 edbd d9c3 48be c023 bbbd
00000300: 2d5d ba3d 60c9 0a3e 979d d5bd c898 e3bd
00000310: 6f1d f43d e84e 383d 6ab4 07bd 0397 3ebe
00000320: c661 463d fca8 10be 1603 d33c 77b2 ce3d
00000330: 7942 42bd f97b 2b3b c647 c93d 8259 4bbd
00000340: df49 273d adba 0bbd a8bf d0bd 7e37 6c3d
00000350: c217 0f3e ab2e ef3d 37f5 c6bd 1940 a5bd
00000360: 9334 0d3e d929 bebc fc0f 373d 7b46 57bc
00000370: f2ba ea3d 0df2 c73d 9322 11be 13ef ff3c
00000380: 14b9 013e dc5f 79bd 47a4 613d f340 b33d
00000390: 425e 22be 18cc 7cbd 8917 5a3d b93d 183d
000003a0: 456c dbbd 5f11 9cbd 2b1f 223d 3e71 1bbe
000003b0: 079e ca3d e360 c8bd 6572 02bd 0c40 87bd
000003c0: a0c6 e53d d6c4 81bd 8593 3139 b560 30bb
000003d0: 002d 5b3c 6b5f 82bd e6bd eabd 13b9 b7bd
000003e0: edad 0c3e fcc0 d0bc 6f28 c4bd 549b fe3d
000003f0: 6fe9 923d adda 313c 8f64 853b 4b99 933c
0.066905946 -0.074407846 -0.05516156 -0.099889345 -0.124177046 0.028621498 -0.042659618 0.10937445
-0.111423016 -0.0910474 0.085630044 -0.041248146 0.06627599 0.10287048 -0.027440762 0.11322993
0.051236507 -0.09644519 0.052175295 0.012457235 0.05554224 0.0057092146 0.059513044 0.0657812
-0.02350781 -0.009707093 -0.07513027 0.14089659 -0.05586858 0.01003672 -0.024824677 0.0012517448
-0.12248416 0.056343727 -0.09546692 0.078365706 0.11777524 0.14051923 0.036911644 -0.04679045
-0.0051487563 -0.013732311 -0.11449925 -0.055439033 0.12433095 0.06037736 -0.0020857598 0.0045759436
-0.07194893 0.06604228 -0.067452274 0.060346242 -0.07624945 0.041946325 0.06200114 -0.02578782
-0.01184485 -0.069204375 -0.12259383 -0.028644918 -0.027933277 0.06532371 0.16447376 -0.0074264025
0.018877065 -0.0039478345 -0.10977787 -0.0459996 0.049958494 -0.11114183 0.0137712695 -0.003990313
-0.12820107 -0.13758935 -0.03414228 -0.15572906 0.07987695 -0.078929365 -0.13996889 0.09033621
0.061855983 -0.079615034 0.10356153 -0.08193717 -0.020737667 -0.09246711 0.04528799 -0.09015761
0.025559397 -0.0548713 0.021451458 -0.031655356 0.062230933 -0.04852345 -0.06263618 -0.032144193
-0.09785694 -0.062527485 -0.1086314 -0.07059955 0.062043432 0.013262947 0.018980548 0.05235999
0.0278453 -0.08993136 0.14835282 0.16682334 0.1473313 0.060466614 -0.10197458 -0.15872996
-0.0023166768 0.16338137 -0.05209233 0.061863154 0.1154546 0.054635808 -0.08237597 0.009719544
0.0034009854 0.13472788 0.039876632 0.050287914 0.0995378 0.04675896 0.09104802 -0.053511087
0.091246255 -0.21577471 0.01865208 -0.024659637 0.0036467558 -0.12980896 0.04454382 0.07505623
0.0065670563 -0.0019096668 -0.09508844 -0.16825598 -0.08109692 -0.077601805 0.038843416 0.07271281
0.09516441 -0.009181152 -0.057478156 -0.12711973 0.009935747 -0.057349604 -0.014019896 0.011964442
-0.09803907 0.0031118104 0.061709784 0.015625658 -0.15018992 -0.13354059 -0.0022110615 -0.047029134
-0.16005982 -0.07546358 -0.028581461 0.073772356 -0.04407541 0.13732709 -0.09181312 0.08413892
0.055572875 0.044551615 -0.17107427 -0.041033536 -0.09545286 -0.055302896 0.13344805 0.04777427
-0.015211827 0.11497022 0.10918308 0.06292954 0.03303473 -0.03872995 0.07630161 -0.19076195
-0.11503502 -0.13374184 0.05292449 -0.048763517 0.15471378 -0.11572291 -0.1960596 -0.09137678
0.09099803 0.13553381 -0.104304485 -0.11113125 0.119196765 0.044997126 -0.03313104 -0.18612294
0.048433088 -0.14126962 0.025758307 0.10092633 -0.047426675 0.0026166423 0.09828143 -0.04964591
0.040841933 -0.034113575 -0.101928055 0.05767011 0.13973907 0.11678823 -0.0971474 -0.08068866
0.13789587 -0.023213314 0.04469298 -0.013139362 0.11461438 0.097629644 -0.14173345 0.03124193
0.12668258 -0.060882434 0.055088308 0.087526225 -0.15856269 -0.061718076 0.0532451 0.03716824
-0.1071401 -0.07620501 0.039580505 -0.15179917 0.098934226 -0.09784105 -0.031847376 -0.06604013
0.11219525 -0.063363716 0.0001693499 -0.002691311 0.013377428 -0.06365856 -0.114620015 -0.08970847
0.13738222 -0.025482647 -0.095780246 0.1243197 0.0717343 0.010855359 0.0040708254 0.018017432

weight f4 [256, 512]
00000000: 54c6 403c 886a 2dbc d42b 04be b7e2 edbc
00000010: e2db ac3d 2355 1c3e 376d 2c3b c5e0 173c
00000020: ab29 fd3c 2dd0 59bd 59bc 71bd f15b 59bd
00000030: 3520 b4bd df89 80bd 19ce 983c a671 bcbd
00000040: f6fb b53d c5ae 1d3d c367 843d 738b 5e3c
00000050: 325b f2bd 6528 1c3c fe06 2bbe 2f17 5bbc
00000060: 33d0 333a 5ae8 f63d 12e2 823d 6008 333d
00000070: 4e53 b73d 7c2b 823d 3bf2 1bbd 2484 8ebd
00000080: 3160 7abd c087 c03c 91d6 94bb 5bc5 fdbc
00000090: 526a e2bc e7bc e33c cbb4 453d e7fc 04bd
000000a0: e9ab 42be 5625 b43c ea1c a13d e78d 2b3e
000000b0: 74e2 d8bd ffe0 9ebd ff0f c63d 5dda a4bb
000000c0: 7b41 0abc d437 d5bd 1355 c4bd b0d1 7cbd
000000d0: a731 0fbd 2fd4 81bd ed98 89bd 1be8 f73d
000000e0: af96 2f3c bd2d e43c 4240 283d 66ff d0bc
000000f0: beb6 293d 25f6 cbbd bd7c 39be 6ff3 e63d
00000100: ee3d e53c 6264 6ebc 8f06 1b3d be73 2ebd
00000110: 4c9f 853d c46b f93c 48c3 1abe 22bb 4ebd
00000120: 7e03 e03d dc8c f3bc 3c89 42bd 77bd a03d
00000130: f9b1 493c ca3e 0fbe 93d5 07bc 39ab d33d
00000140: d7f7 ebbc 5813 9fbc c457 6dbc 3bf4 cc3c
00000150: cf39 c1bc 8259 143e 270b 2dbe 4bea fcbd
00000160: a8d8 253e 2408 eabd 18b4 37be d464 69bc
00000170: e6f1 09bd 22cf 973d 6540 673d 4cc7 ccbd
00000180: e8ba 043c 4f6a c43a 1beb 333d 914c 443d
00000190: ae91 a63d 55c4 83bd f731 8fbd 7a5e 0d3a
000001a0: 46bd f7bd dd70 ec3b 6813 d1bd 1265 67bd
000001b0: cd87 a9bd ba73 31bd 3940 3fbd 200a 01bd
000001c0: 23b2 d1bd b1f8 2cbd ece0 f2bc 22eb b93d
000001d0: b079 b0bd 5859 be3d a63a bc3d ab7d 7cbd
000001e0: 653a d93d be76 fa3c 3bd8 1fbe d1c1 8a3d
000001f0: 36a0 23be 9526 9b3d 7f7b c23c ca55 393e
00000200: 8b4c 363d c6f9 fdbd 753f 1a3e a892 38bd
00000210: b473 3e3e eddd 9d3c 525b 16be 963e e4bd
00000220: 0aa3 6ebd 5142 753d 694a a0bd 28a7 a2bc
00000230: ea4d 863d 4014 11bd 1b7d 973c 370b 5abd
00000240: e5ca 62be ea2d 873d 94bf c4bd 09f8 9d3c
00000250: bf50 25bd 9667 573e 9f58 1e3d d7af 8e3d
00000260: 9668 8dbc 01e1 94bd a1c5 c03d ccc6 02bd
00000270: 4727 cf3c fe69 733c dd4f 933c 475a a83c
00000280: 46a5 fd3b f427 2a3d 4ccb c83d c77b 193d
00000290: aa6f be3d ac6f 03be 4ba3 56bd af29 b23d
000002a0: 2579 88bd 19f0 8f3d af0f 8d3c 24ef 09be
000002b0: 6c9f db3d a9b7 a23d 281e 3e3d 61e4 4d3e
000002c0: a06a 0fbe efe0 4dbd 42f5 543d ccbc 85bd
000002d0: 4e65 033e d4cd d83d 4658 f2bd b696 39bd
000002e0: 7221 343c d252 95bd c7f1 85bd 7817 103c
000002f0: ab9b 1a3e 9de0 adbd ea8b e1bb 6a06 69bd
00000300: 0a06 48be 7821 c83d 8d6c bf3d 04d6 373d
00000310: d4a4 d73d 8e50 4f3e fc4b 423d b8dc 223e
00000320: c40d 183e 2e85 dabd ab05 303b 40b6 0fbe
00000330: fb98 173e b909 183d fa2f 6fbc a6a0 ba3d
00000340: 5737 babd 5b66 9fbd 68f0 28bc 4683 11be
00000350: 9d79 1c3d 784c c1bb 01e8 ca3d 2aad 3f3e
00000360: 1bd0 22bd 6b5a c7bb 803d 84bc eed5 b13d
00000370: 7b6d 90bd 187e a8bd f6bb cb3c 6da0 013e
00000380: 8ae4 1c3e 3b12 0f3d 99ad ee3d b5e8 173d
00000390: 853d 9a3d 6ac0 50bc c668 e43d 0d15 34bd
000003a0: 2d3a 813d c82e a8bd f751 a4bb c34c 0c3d
000003b0: 1010 93bd 47d1 1fbd f3d6 fdbd 58dc b53d
000003c0: b1fc 93bd 0b88 09be 6cbd 633d 0e5e c53c
000003d0: 20e2 09be ac43 fe3d 1e44 58bd 6fb8 0bbe
000003e0: 5445 27bd 2919 d53d 0a86 cd3d 0552 8a3d
000003f0: e397 14bc c27b a1bc e5f6 33bd be3e 98bd
0.011766035 -0.010584481 -0.12907344 -0.02903877 0.08440377 0.15266852 0.0026310214 0.009269898
0.030903658 -0.053177048 -0.059017513 -0.053066198 -0.087952055 -0.06276297 0.018652963 -0.09201364
0.08885948 0.03849675 0.064651035 0.013583052 -0.118338004 0.009531115 -0.16701886 -0.013372227
0.0006859332 0.12056036 0.06390776 0.04370916 0.08951436 0.0635595 -0.038072806 -0.069587976
-0.06112689 0.02350223 -0.00454218 -0.030977895 -0.027638588 0.027800037 0.04826812 -0.03246775
-0.19010891 0.02199046 0.07866843 0.1675335 -0.105900675 -0.07757758 0.0967102 -0.0050309137
-0.008438463 -0.10411039 -0.09586539 -0.06172341 -0.03495946 -0.06339299 -0.067186214 0.121048175
0.010717078 0.027853841 0.041076906 -0.025512408 0.041434042 -0.09959058 -0.1811399 0.112769
0.027983632 -0.0145503 0.03784805 -0.04259085 0.06524524 0.030446894 -0.15113556 -0.050471433
0.10938166 -0.029730253 -0.04749416 0.078486376 0.012310498 -0.13988796 -0.008290666 0.103353925
-0.028804703 -0.019418404 -0.014486257 0.025018802 -0.023587136 0.1448727 -0.16898786 -0.12349375
0.16195929 -0.11427334 -0.17939794 -0.014245231 -0.033677958 0.07412554 0.056457896 -0.0999895
0.008101203 0.0014985296 0.043925386 0.047924582 0.08133255 -0.06433932 -0.06991952 0.0005392801
-0.12096648 0.007215603 -0.102087796 -0.056492873 -0.08277855 -0.043323256 -0.046692107 -0.031503797
-0.10239055 -0.042229358 -0.029648267 0.09078051 -0.0861696 0.09294385 0.09190874 -0.061643284
0.10606841 0.030574199 -0.15609829 0.06775249 -0.15979084 0.07575718 0.023740528 0.18099132
0.04450659 -0.12401156 0.1506327 -0.045061737 0.18598825 0.019270862 -0.14683273 -0.1114475
-0.058260955 0.059877697 -0.078266926 -0.019855097 0.0655783 -0.035419703 0.018492272 -0.05323335
-0.2214771 0.06600554 -0.09606853 0.019283311 -0.04036021 0.21035609 0.038658734 0.069671325
-0.017261785 -0.072694786 0.09412695 -0.03192787 0.025287284 0.0148568135 0.017982418 0.02055086
0.0077406494 0.04154201 0.09804401 0.03747156 0.09298642 -0.12835568 -0.052401822 0.08699357
-0.066637315 0.07028217 0.017219393 -0.13470131 0.10723767 0.07945187 0.046415478 0.20106651
-0.14005518 -0.05026334 0.05199171 -0.06530151 0.12831613 0.105861336 -0.11833243 -0.045309745
0.010994302 -0.07291187 -0.06540256 0.008794658 0.15098445 -0.08490107 -0.006883134 -0.056890883
-0.19533554 0.09772009 0.09346876 0.044881836 0.10529485 0.20245573 0.047435746 0.1590451
0.14849001 -0.10669933 0.0026858847 -0.14034367 0.14804451 0.037118647 -0.014598841 0.091126725
-0.090925865 -0.07783195 -0.010311224 -0.14210233 0.038201917 -0.0058990084 0.099075325 0.187184
-0.039749246 -0.0060837767 -0.016142607 0.08683382 -0.07052132 -0.082271755 0.0248699 0.12658854
0.15321556 0.034929495 0.11654205 0.03708716 0.07531265 -0.012741188 0.111527964 -0.043965388
0.06309924 -0.08212048 -0.005014654 0.034252893 -0.07180798 -0.03901794 -0.12394514 0.08879918
-0.072259314 -0.13430803 0.05560057 0.0240927 -0.13465166 0.12415251 -0.052799337 -0.13644575
-0.0408376 0.104051895 0.100353315 0.06753925 -0.009069416 -0.019712333 -0.04393663 -0.07433842

bias f4 [256]
00000000: d145 613c 99ad 17bc 24ac 04be 5333 e4bc
00000010: 7eb2 cf3c 4cbe bcbd a0d1 80bb f73e 2ebc
00000020: aa03 e73c c760 2ebe aa63 b4bd 76cb 923d
00000030: cc61 fbbd 7de0 0cbe b303 83bc d0da e9bc
00000040: 0ade abbc 8b69 29bd e650 d6bc 9e73 fcbc
00000050: 0602 35be 0318 d7ba 5152 d2bc f171 f9bc
00000060: 05f0 17bd 25ed 01bb 4286 18be 0223 abbd
00000070: c00b 94bd d923 b2bd 26d3 273b fe67 ddbd
00000080: 01a0 0f3d 8ab6 c4bd 161d 41bd 91f5 1e3d
00000090: e181 6cbd 3f17 5cbd 3857 f7bd 9b87 f83c
000000a0: 9810 abbc b14e fcbd 7a72 58be beb1 fcbd
000000b0: a92b a2bd 5f8a fdbc 3184 bbbd f00d eebd
000000c0: 925e c5bd 0fb9 7f3c 88df 753c 1862 89bd
000000d0: 7bbb 9abd d178 8fbd c270 16bd 943a 8cbd
000000e0: 6d29 d2bd 5541 76bd 6c7e afbd b051 3bbe
000000f0: 5d02 a2bd 5a0f cfbd ec93 12be 2da9 09bd
00000100: 1d09 1dbe 25c8 8bbd a9f7 3ebe 25c9 4fbe
00000110: ebe2 323d 0558 913b 792c 01bd 9ded d73c
00000120: 4708 283d 7ec6 bdbd d129 0f3c 21da a5bd
00000130: 3d34 f8bd 88d9 92bd fd9b adbd 4814 87be
00000140: 3402 9dbd 7932 3ebe 3670 30be 81fe cb3c
00000150: d231 8bbd e7a7 97bd eaf4 9ebd b32d cfba
00000160: a5d7 39bd 7b70 12bb 96b6 1fbe d958 88bc
00000170: 0f37 84bd 389f febc 9092 c8bc 88ff 383d
00000180: 2419 0dbd 7f88 f9bd 23cc 27bd 6ef0 7a3c
00000190: 2e15 6fbd 0fb7 65bd ef64 87be 6fa1 bcbc
000001a0: 1fbd a2bd 0115 75bd 8a64 64ba 3ec4 75bc
000001b0: 1978 f73c b779 90bd b5a4 13be fd10 eb3c
000001c0: 9fd2 31bd 7d01 3cbe d314 333c 92d6 aabd
000001d0: 0bb6 72bd 8db5 e6bd 0663 16be df25 04be
000001e0: 6db9 cfbd 9e14 873c 3557 b3bc 9a86 98bd
000001f0: e9d5 8e3d 293b 09bd 0e5b 94bd c2ba 29bc
00000200: 0af5 94bd e150 5e3d e2cc de3c 6040 babd
00000210: b785 88bc b200 b6bd f118 acbd 3e75 af3c
00000220: 2af2 a3bd e754 ecbd 47dc 55be e39c 3abe
00000230: 6602 04bd 12c8 36be 2d34 57bd fe45 b3bc
00000240: 5495 0ebe e6b4 f2bd 9500 68be 5102 f3bc
00000250: 9bc1 47be cced 01be 57f8 39be e733 24bd
00000260: 71fa cebc fed9 1c3c 3cfd 7fbc adb1 94bd
00000270: e45a 1cbe fd3c 5abd cd5b cabd f063 c43b
00000280: 4076 ccbd 4690 d2bd 03ca a0bd 5edb 3bbe
00000290: 355f 10be 85e7 b9bd 14d5 a5bd aa0a 05be
000002a0: fbfd 52bd 1ec6 babc cf07 eabc 497c 3bbc
000002b0: 4f0d 7fbe 9373 2fbb 22e1 c7bd 728f 78bd
000002c0: 1759 11be d13e e4bd 3c34 04be 5bda c2bd
000002d0: 15d0 353b 38df fdbd e24b e83c 4891 453d
000002e0: d036 743c 1900 05bd 98c3 2dbe c505 f0bd
000002f0: eb46 5abd bb04 6abd 4633 f2bd 6a1c 0bbe
00000300: 9ab7 0bbd 4d89 d9bd 95ea e5b9 8b2a e3bd
00000310: e675 b5bd 7096 28bd 0603 48bd e507 84bd
00000320: 0606 4d3d 9e54 0ebd dccb 17be 27d6 faba
00000330: 5b3f abbd 3d1b acbd ec40 04be 0986 4fbd
00000340: f517 5d3b b7f2 d93c b56a 0abe 4610 3bbd
00000350: f99d 933d a01f ae3c efc6 2dbe 2e4c 9ebd
00000360: 02c9 1abe 44b4 83bd 84c2 82bd a8d7 29bc
00000370: f9ff 56be dde4 cdbd 36ed d3bd 6d65 d2bd
00000380: 714d 37be ce89 e9bd 63f8 2ebd 6f5a 44be
00000390: 9f15 e7bc 4ce4 b3bd 9f36 d3bd a9a9 afbd
000003a0: 15a1 66bd 3d2f 2bbe 0c5a 9ebd 7b49 a1bd
000003b0: d524 cfbd ff8e 813b d4cd 1ebe 7b55 02be
000003c0: dc46 cabd 261a 10bd 30f8 20be 0d39 f2bd
000003d0: c37f 44bd cd9e 5ebd 32a5 85bd fbc3 0bbe
000003e0: 263b debc b871 2cbd d5f3 95bc 42eb 19bd
000003f0: 7d5b 62be c6ec 90bd 4700 d9bd 719e dbbc
0.013749556 -0.0092576975 -0.12956291 -0.027856505 0.025353666 -0.09215984 -0.0039312392 -0.010635129
0.02819999 -0.17029105 -0.08808072 0.07167713 -0.12274513 -0.1375751 -0.015992975 -0.02854672
-0.0209799 -0.04136042 -0.026161622 -0.03081685 -0.17676553 -0.0016410354 -0.025674017 -0.03044984
-0.037094135 -0.0019825187 -0.14894965 -0.083562866 -0.07228804 -0.08698244 0.0025608032 -0.108108506
0.0350647 -0.09605129 -0.04714688 0.03880841 -0.05774105 -0.053733107 -0.120771825 0.0303381
-0.020881936 -0.12319697 -0.2113742 -0.12338589 -0.07918484 -0.03094977 -0.09156073 -0.11623752
-0.096371785 0.015608086 0.015006907 -0.06708163 -0.0755529 -0.07005466 -0.036728628 -0.068471104
-0.102618076 -0.0601209 -0.08569035 -0.1829288 -0.07910607 -0.1011035 -0.1431424 -0.033608604
-0.15335508 -0.06825284 -0.18649162 -0.20291574 0.043673437 0.0044355416 -0.031536553 0.02635842
0.04102352 -0.09266375 0.008737997 -0.080982454 -0.12119339 -0.07170397 -0.08477018 -0.2638266
-0.07666436 -0.18573941 -0.17230305 0.02490163 -0.06796612 -0.07405072 -0.077615574 -0.0015806466
-0.04537167 -0.0022344876 -0.15596995 -0.016643928 -0.06455814 -0.03108178 -0.024483949 0.04516557
-0.034447804 -0.12184238 -0.040966164 0.015316112 -0.058369808 -0.05608278 -0.26444194 -0.023026196
-0.07946228 -0.059834484 -0.0008712491 -0.015000401 0.030208634 -0.07054465 -0.144183 0.028694624
-0.043413755 -0.18359943 0.010930258 -0.08341707 -0.05925564 -0.11265097 -0.14686212 -0.12905072
-0.10142789 0.016489323 -0.02189217 -0.07447548 0.06974394 -0.033503685 -0.0724393 -0.010359468
-0.072733 0.05427635 0.027197305 -0.0909431 -0.016665323 -0.08886851 -0.08403195 0.02141821
-0.080051735 -0.11539631 -0.2088481 -0.1822391 -0.03222885 -0.17849758 -0.052539993 -0.02188396
-0.13924152 -0.1185091 -0.22656472 -0.02966419 -0.19507448 -0.12688369 -0.1816114 -0.04008856
-0.025265904 0.009573458 -0.015624341 -0.072604515 -0.15269047 -0.05328082 -0.09880791 0.005993359
-0.09983492 -0.10281424 -0.07851031 -0.183454 -0.14098819 -0.09077362 -0.08097282 -0.1299235
-0.051511746 -0.022799548 -0.028568177 -0.011443206 -0.2490742 -0.0026771768 -0.097597376 -0.060683675
-0.14194141 -0.11144794 -0.12910551 -0.09514304 0.0027742435 -0.12396091 0.028356496 0.048234254
0.014905646 -0.032470796 -0.16969144 -0.117198505 -0.05329029 -0.057133418 -0.11826186 -0.13585058
-0.034110643 -0.10621891 -0.0004385306 -0.11092099 -0.08860378 -0.041159093 -0.04883101 -0.06446818
0.050054573 -0.034748666 -0.1482386 -0.0019137309 -0.083616935 -0.08403633 -0.1291539 -0.050664935
0.0033736203 0.026604993 -0.13517268 -0.045669816 0.07207865 0.021255314 -0.16970418 -0.07729374
-0.15115741 -0.06430867 -0.06384757 -0.010366358 -0.20996083 -0.10053418 -0.10347979 -0.10273252
-0.17900635 -0.11403237 -0.04271735 -0.19175123 -0.028208552 -0.087837785 -0.103131525 -0.08577282
-0.056305964 -0.16717239 -0.07732019 -0.078753434 -0.10114447 0.003953814 -0.15508205 -0.1272792
-0.098767966 -0.035181187 -0.15719676 -0.11827288 -0.047973406 -0.054350663 -0.06525649 -0.1364898
-0.027127814 -0.04210064 -0.018304745 -0.037577875 -0.22105213 -0.07076411 -0.10595756 -0.02680895

weight f4 [128, 256]
00000000: fb84 aa3c 78b4 12bd 89fc 7e3d 7a03 313c
00000010: 04c6 0fbc d588 2fbd f9d9 bf3d 366d 4c3e
00000020: 80a8 b339 b720 5f3b 1f58 873d 1a15 52bd
00000030: 8475 ad3c 0efa 19bd 0c1c da3c d711 153d
00000040: 7545 1cbd 544d 0a3d eefe 1fbd c274 ebba
00000050: f601 e7bc 7771 00be 005d ccbd dae7 97bc
00000060: 57e4 44be a7a7 063c 64c2 abbd 0eaf 78bd
00000070: 9b63 9fbd 6cef 6fbd 1590 1dbc f2e3 fc3d
00000080: 341b a03d a240 22be a36d 7bbd 5e58 473c
00000090: b46e 15bd cbd8 b63c 3b10 073c 1625 823d
000000a0: f5fe a3bd 2402 05be 0843 24bc 28e5 c73d
000000b0: 09cb 303d 78c7 103c 0400 b5bd 451e e23b
000000c0: 9cfb 7e3d 6205 78bc 2be1 e8bd 4421 003e
000000d0: 1aac 863e 31c1 4f3d 8514 583c 3803 983a
000000e0: fb03 39bd 3fd5 d23d fc1f 07be 20cc 383d
000000f0: 77fa d63d 8eb5 d7bd 1b92 bc3d 08e6 e93d
00000100: 73b5 293d 549c 46bd b47f bb3d af71 76bc
00000110: 5e95 d83c fca9 2a3c d67e 51bd f9c3 7cbd
00000120: abc5 87bd 01a2 ccbd 2b1a a83c 3829 8b3d
00000130: f507 7fbd 066a 0bbd 1910 5f3b 6556 06bd
00000140: 107c 9e3d 4a05 2ebe f280 873e b202 e9bd
00000150: 074c df3b 3c91 17bd 7355 13be f5cb 4b3d
00000160: b074 5c3c abd8 4c3d a599 b13c ad04 993c
00000170: 0a6c bdbc 87c5 863d 8104 51bb 43cf 703b
00000180: 797d b0bd 02f7 263e e7d6 453d b6c8 003d
00000190: 36f1 b83c 2b63 7bbe e64e e63d e98f a5bd
000001a0: 7e7e 833d 6eeb 15bd 350a f4bd 6aa4 bebb
000001b0: 5c9e d9bb b3a3 c13d 6cc2 a43d bb80 3d3d
000001c0: 449c df3c ede6 b2bd dd70 193d a876 233d
000001d0: a310 49bd 66e8 523c a934 00bd 0e82 943c
000001e0: 9a09 263e 8272 9bbd 0a8b 0f3c fa9c 863d
000001f0: d215 813d ec2e 1ebe c208 3abd 322b 143d
00000200: cf52 19be a979 8cbd 6455 04be 0d42 bdbd
00000210: 09cb 5d3e c2e5 123d dd76 63bd 678c 4abd
00000220: e7f0 913c b928 96be f94f 8b3d d705 ec3d
00000230: fc88 dabd 68e5 52bc 1a91 04bd 379a 903b
00000240: 1cfd d3bd a8bd 2ebd 7ff7 fabd 94f0 b9bc
00000250: 6b67 163c 112f dd3d c456 533c 5c08 d4bd
00000260: 2741 fe3b 5c8b 16bd 6b0d 42bc 3b0b eabd
00000270: e2e0 1abe a0cd 8ebc 62bc 4cbd 9eea 823d
00000280: 832c 04be 1192 16be ce14 8f3c 6e7f 013e
00000290: 4c8d 0c3e c0ee 033e d153 893d ab0d 813d
000002a0: 5748 38bb bd20 12be 1a1a deba baa8 a23c
000002b0: 5654 53bc 550a f9bd 9ec9 25bc 7d91 0ebd
000002c0: 752b e43d f32a 95bd 2c57 9dbd 78cd 70bd
000002d0: 0736 4dbd f0df bbbd 53d4 87bc fd56 a4bb
000002e0: bf9c da3d 5a60 0bbe 3043 83bd 3fd9 103d
000002f0: 32c7 3c3d 6366 e73d d0e1 fb3b 6a54 52bc
00000300: 2cb8 6bbc 926a 12be cff1 7bbc 12ab d4bd
00000310: adb6 463d aeb7 193b 266c 11bd 486c b43d
00000320: 7381 adbd 9f8f 49bc 6dd7 a73d 1cdd aabc
00000330: 119a 4ebe f998 fd3d dcc6 febd 1a0f 6c3d
00000340: 47e3 bcbd 5a7e 0a3d af1b b83c 399f d4ba
00000350: 60b8 873d f1fc 7ebd 297f a6bc d12d 663d
00000360: d08f acbd fcc3 d2bd bcf2 093e 9873 313d
00000370: ebab e03d 39f0 cebc 810d 2f3c 773c 28be
00000380: 3412 a0bd 7104 9fbd 2f22 adbb 50ce 0f3d
00000390: 66a3 84bd 84a5 78bd a87b 87bd 6218 72bd
000003a0: 140f af3d a4b0 cf3d ff41 bf3c 96d8 bc3d
000003b0: 3ede 9f3c b4fa a83c 1c95 cfbc c398 bcbd
000003c0: 015d 3e3d b252 95bd 9518 abbd bbd1 833c
000003d0: d027 ccbd 818c 2fbd e50e 3fbd 63ab d23c
000003e0: 15fb 4a3d a85d 67bd 7018 aa3d ed1e c6bd
000003f0: f7f8 ecbd b5ed 8dbd dfdd 7cbd 86e3 79bd
0.020815363 -0.03581664 0.062252555 0.0108040515 -0.008775238 -0.042855103 0.09367747 0.19963536
0.00034267083 0.00340466 0.06608605 -0.051289655 0.0211742 -0.037591986 0.026624702 0.036393967
-0.038152177 0.033765152 -0.03906148 -0.0017963874 -0.028199177 -0.12543283 -0.09978676 -0.018543173
-0.1922773 0.008218682 -0.083866864 -0.06071382 -0.0778267 -0.05857794 -0.009616871 0.123481646
0.078176886 -0.15844968 -0.061383855 0.0121670645 -0.036482528 0.022320172 0.008243616 0.0635473
-0.080076136 -0.12989098 -0.010025747 0.09760505 0.04316238 0.00883662 -0.088378936 0.006900581
0.062251672 -0.015138002 -0.113710724 0.1251269 0.26303178 0.05072135 0.013188486 0.0011597639
-0.04516981 0.1029458 -0.13195795 0.045116544 0.10496991 -0.10532676 0.09207555 0.11420828
0.04143281 -0.04848893 0.09155217 -0.015041753 0.026438411 0.010416504 -0.05114635 -0.06171033
-0.06629499 -0.09991837 0.02052029 0.06794971 -0.062263448 -0.03403666 0.0034036695 -0.032797236
0.07738507 -0.16994205 0.26465565 -0.11377467 0.006814483 -0.03700374 -0.14388065 0.049755055
0.013455555 0.05001132 0.021679709 0.018678987 -0.023122806 0.06580644 -0.0031893554 0.0036744631
-0.08617682 0.16305164 0.04830065 0.031441413 0.022575956 -0.24549548 0.112455174 -0.08084089
0.06420611 -0.036601476 -0.11916009 -0.0058179395 -0.0066411924 0.09455051 0.080448955 0.046265345
0.027296193 -0.08735452 0.03746115 0.03990808 -0.04908813 0.012872791 -0.03130022 0.018128421
0.162146 -0.075902 0.008761177 0.0657291 0.0630299 -0.15447587 -0.04541851 0.036174007
-0.14972995 -0.06859142 -0.12923199 -0.09241114 0.21659483 0.035863645 -0.05553328 -0.049450304
0.017815067 -0.29327944 0.06802363 0.11524551 -0.10670659 -0.0128720775 -0.032364942 0.004412915
-0.10351011 -0.04266134 -0.122542374 -0.022697724 0.00917993 0.10799993 0.0128991045 -0.10353157
0.0077592316 -0.036753997 -0.011844019 -0.11427923 -0.15124848 -0.017432034 -0.049984343 0.06392406
-0.12907605 -0.14704157 0.017465975 0.12646267 0.13725775 0.12884045 0.0670544 0.06301435
-0.002811929 -0.14270301 -0.0016945035 0.019855846 -0.012898525 -0.12160174 -0.01011887 -0.034806717
0.11141101 -0.072835825 -0.07682642 -0.0587897 -0.050100353 -0.09173572 -0.016580736 -0.0050152526
0.10674428 -0.13610974 -0.064092994 0.035363432 0.046088405 0.112988256 0.007686831 -0.012837509
-0.014387172 -0.14298466 -0.015377476 -0.103841916 0.048514057 0.002345543 -0.03550353 0.088097155
-0.08471956 -0.012302308 0.08195386 -0.020857386 -0.20175959 0.12382693 -0.12440273 0.05763159
-0.09223037 0.033811904 0.022474138 -0.0016221768 0.066269636 -0.062252942 -0.020324307 0.056196038
-0.084258676 -0.10291287 0.13471502 0.04332313 0.10970291 -0.025261031 0.010684372 -0.16429316
-0.07815972 -0.07764519 -0.005283616 0.035108864 -0.06476478 -0.060704723 -0.066153824 -0.059105285
0.08547798 0.101411134 0.0233469 0.09220998 0.019515153 0.020627357 -0.025339656 -0.092088245
0.046475414 -0.072911635 -0.08354298 0.016091218 -0.09968531 -0.042858604 -0.046645064 0.02571649
0.049555857 -0.056485802 0.08305442 -0.096738674 -0.11570924 -0.06930105 -0.06173503 -0.061008

bias f4 [128]
00000000: 1011 1dbe 5437 b9bd 7bbd 343c 9c57 13be
00000010: 6558 7ebd 87aa 34bd da7a 77bd e2f2 013d
00000020: 5ba2 2bbd b75c aabd 8c88 773d bf92 403c
00000030: 6e91 81bd 4054 67bd 6573 a5bd 4be9 47be
00000040: 73eb 063c 94d8 59bd 181b a0bd e611 b5bd
00000050: b100 fabc b2b3 93bd 2fc0 0ebe 52b3 cabc
00000060: 150f d1bd ec14 debd 780f d33c 7770 9dbc
00000070: 0249 0c3c 60a7 f5bb 6058 48be 1ad2 0abe
00000080: f46a 8dbc d090 10bd 5af0 09be 5e5f 8fbd
00000090: 1f12 c6bd fb90 febd c9e7 bbbd 7bbf de3c
000000a0: 5940 2fbd 68c1 bebc 485e 0e3d 06dd 53be
000000b0: 5dd2 1abd 300b 92bd 68c4 93bd 7f9f cfb8
000000c0: 7132 43be ec70 80be a7d9 2f3d 0625 98bd
000000d0: 809b b53d 4095 acbd 8387 71be ab71 aebd
000000e0: e63a 1dbd 9855 16bb c2c3 01bd 3f35 bbbd
000000f0: 8c7f 83bd ddc8 9e3b cd8b 5ebc e322 493c
00000100: 2d8d 14be 1f1d bebc 8b25 d3bd de25 72bd
00000110: fd74 2a3c c775 cebc ef4b ca3c acd2 1fbe
00000120: 08bd 41be 1aed a6bd 7e68 2cbb 9bfe b33d
00000130: bd9d 96bd b249 d4bd 7955 4cbc 3e74 cbbd
00000140: 87bb a9be c53f 1dbc 43fa cabd d57d f2bc
00000150: 822e 1b3d 3665 06be 8036 25be 8507 e23c
00000160: 8a58 07be 2c32 52bd 6741 b9bd 95bb 893b
00000170: e7ac 28be 48db d5bd af65 b5bd f9f7 0d3d
00000180: efb3 77bd 4ae5 21bc efa6 8cbe 48f3 22be
00000190: 79fd beb9 b077 eabc f4cc 183d 9f9b 34bc
000001a0: 8070 2dbd 6338 51be cee1 86bd 0f4c 023d
000001b0: 8f80 2fbd a5d4 78bd 6e3e 15bd e365 a7bd
000001c0: 3256 5dbe eff4 0dbb af6c b53c 5f36 44be
000001d0: ffef 06be 31e6 35be 3c5c 923c 08c2 44bc
000001e0: 4a5f b9bd 8e5c 56be 3b22 9e3c bab6 b7bd
000001f0: 8b87 49bd e914 95bc 6340 93bd c1cb 48bc
-0.1533854 -0.09043756 0.011031504 -0.14388889 -0.06209602 -0.04410794 -0.060419895 0.03172577
-0.04190288 -0.08318465 0.060432956 0.011753737 -0.06326567 -0.05647683 -0.080786504 -0.19522588
0.008234846 -0.05318506 -0.07817668 -0.088413045 -0.030517908 -0.072120085 -0.139405 -0.02474371
-0.10207955 -0.10843834 0.025764212 -0.019218666 0.008562328 -0.0074967593 -0.19564962 -0.1355671
-0.017262913 -0.035294354 -0.13470593 -0.07000612 -0.09671425 -0.124299966 -0.09175069 0.027190914
-0.042785976 -0.023285583 0.034757882 -0.20689783 -0.037798274 -0.0713104 -0.07215196 -9.900238e-05
-0.1906221 -0.25086153 0.04293218 -0.07428937 0.0886755 -0.08426905 -0.2358685 -0.08517774
-0.038386248 -0.0022939201 -0.03168083 -0.09141015 -0.06420812 0.004845722 -0.013583136 0.012276384
-0.1450698 -0.023207245 -0.10309895 -0.059118144 0.010403869 -0.025202645 0.024694411 -0.15607709
-0.18919766 -0.08150692 -0.00263074 0.087887965 -0.07354305 -0.10365619 -0.01247155 -0.09934281
-0.33150885 -0.009597723 -0.09911015 -0.029601017 0.03788615 -0.13124546 -0.16134071 0.027591476
-0.13217369 -0.05131738 -0.09045678 0.0042032697 -0.16472207 -0.10442215 -0.08857285 0.034660313
-0.060474332 -0.009881327 -0.2747111 -0.15913117 -0.00036428476 -0.028621525 0.037304834 -0.011023431
-0.042343616 -0.20431666 -0.065860376 0.031810816 -0.042847212 -0.06074967 -0.03643649 -0.0817373
-0.21614912 -0.0021660884 0.022146551 -0.19161366 -0.13177489 -0.17763592 0.017866246 -0.012009151
-0.09051378 -0.20933744 0.019303432 -0.08970399 -0.04920153 -0.018198447 -0.07190015 -0.01225561

weight f4 [12, 128]
00000000: c024 2f3d c396 763c 6a9a 193d 1999 9bbd
00000010: 8aa2 a93b 78ef 05bc 1f6b 27bc 71f6 703d
00000020: 0e33 e8bc e26a 193c 1cef 63ba 5398 f2bc
00000030: fb5a 3ebd 4631 96bd b4e7 8abc 2db9 c4bc
00000040: 1ad2 cfba 8b46 173d b88d c13b e01c e2bc
00000050: 5464 c43d 6cc2 1dbc 99c9 86bc 9acb 25bd
00000060: 7046 83bd f5d9 6fbc d93c 91bc b89f 9cbc
00000070: 4575 1b3c 1e48 6b3b 75c3 87bd 3c9d 24be
00000080: cbed 56bc c0b9 8bbb f950 0b3d 9d00 c7bb
00000090: 2114 ddbc 3e5a e43c 4313 4ebd 48c9 573d
000000a0: ee1f 80bc 9349 983d 9d50 a4bc 5f0b aa3c
000000b0: bac0 5d3c c76e 273c c696 a9bd 31b9 a73d
000000c0: 605b 2f3d d5d8 bc3c 4af4 8b3d ba5f 1f3d
000000d0: 8dc4 063d 9a0c 653d 3ff0 5b3d 90a1 24bc
000000e0: 6933 713d 90c9 3abc 0fdf 9abb d239 80bd
000000f0: bd66 3a3d d6da b93c c84c 903c 4832 e7bc
00000100: 0b57 afba fc9b 82bc 8530 fcbb bb26 2abd
00000110: 7a80 78bb d848 45bd 079e c33c d920 053c
00000120: eb30 f63c 22ab 14bd cd5d 523d f54f 64bc
00000130: d15d d7bc b76c 5cbd ae54 18bc 95e0 693d
00000140: 163b c83d d070 88bc 5733 473d d925 c1bb
00000150: a47b bcba 863a c5bb 2fb9 96bd 8511 093b
00000160: 6071 13bd c560 7ebb 1ddd fa3c f6ed ea3c
00000170: b377 60bd b4d2 1bbc 149b c3bc 399a 1d3d
00000180: 48b9 043d ccf7 abbb ed6c f13c 795f 25bd
00000190: b21f 3c3d 73fd fe3c 270b 5abc 5ad9 223b
000001a0: 268d 113b 6c79 1a3d 8aa6 863b d6e4 d6bb
000001b0: 195c a83c 90ab f9bc ceab b2bc 43b8 133d
000001c0: 101c 843d ac4e 8c3d a2e2 343c f2c3 d93c
000001d0: 4f46 103d 8ec8 523c 3f80 90bd f1d9 e9bc
000001e0: a76b 99bb 3261 0abd 7829 c0ba d459 50bc
000001f0: b1bb 783c f46e eb3c c930 6cbd eb74 93bc
00000200: 571a ec3c 5697 afbc fe7a 39bc 3976 aebd
00000210: 2f9d 29bc 2dd3 b339 2c74 12bc bf5e 4ebc
00000220: 512d fc3b 158c 123c 41ca 073d eba8 3abe
00000230: 4b2e b4bc 5ddc e53c 7e80 3a3d c1e7 2dbc
00000240: a099 31bd 8535 30bd 3377 1d3d 857b 8b3d
00000250: fc32 2539 e1c8 96bb f760 94bc 5349 25bd
00000260: a93a 4d3d c769 14bd 9fb9 c13c 7860 e53c
00000270: feb5 5a3c db62 5a3b b93a 5abd 6a06 663c
00000280: 9d82 62bc 97d8 f7bb d942 193d bc0a 103d
00000290: aee9 8a3d 7f0b 2a3c facb 833d 64f2 d2bc
000002a0: 6de7 a7bd 2c8f 643d dc8e e13b c7cf 273c
000002b0: d325 c83b 623f 2a3b e80d 92bd 81fa 72bd
000002c0: bde3 42bd 1dc0 973d 928d 9a3d f689 473d
000002d0: 34ab 92bd fcc1 9fbb 4034 9bbd 60c0 0a3c
000002e0: 7bf3 7ebb fc8f 9c3d 65e1 ccbd 6299 9c3d
000002f0: f3f8 c0bb f700 463d 8d0e 4bbd ac76 91bd
00000300: ee29 903d e036 c0bc 41b8 5ebd 5ffc 58bd
00000310: 4eb7 983b 6307 58bd 5a84 c33d 2af1 1abc
00000320: 203e a73d 68a0 58bd 7296 ab3c df13 0b3d
00000330: 11ad c2bd 70fd b83d 02b9 a33b 1861 6c3d
00000340: c631 4d3c e844 7f3d 5af5 73bd 7066 d4bc
00000350: 3fc2 acba 7121 0b3c 9d77 d63d ec25 94bd
00000360: 4fab 303d 18f5 623c 71fe 3e3e 0880 903c
00000370: 2fc2 a23c 7887 c53d b379 123d 2716 95bd
00000380: 27d8 e53c 1d3b 8d3d b7aa b6bd 2ef8 37be
00000390: c513 35bb 6fff 08bd a1ba 94b8 a817 80bd
000003a0: e3cb cbbc 2b45 213d d58d 6abc 447e 2dbb
000003b0: ba2d 84bd ce71 91bc e7a6 f33b a4d2 7bbc
000003c0: dcc5 8e3d 0817 d3bc a2f4 3dbd 6f50 e53c
000003d0: 9870 873d 745f 573d 76ac a6bd 9c5d 7bbd
000003e0: 720c 053d 6fc5 103d 9fb1 91bd 36c6 ffbb
000003f0: c2a4 253c 2053 113d 34e9 b93d 7866 a3bd
0.042759657 0.015050593 0.037500776 -0.075975604 0.005176847 -0.00817477 -0.010218411 0.058828775
-0.028344657 0.009363862 -0.0008694993 -0.02961365 -0.046473484 -0.07333617 -0.016956188 -0.02401408
-0.0015855462 0.03693251 0.005906787 -0.02760166 0.095894486 -0.009628873 -0.016453551 -0.040477373
-0.06409919 -0.014639367 -0.01772921 -0.019119129 0.009488408 0.003590114 -0.06629077 -0.16075605
-0.013118218 -0.0042640865 0.03401277 -0.006073071 -0.026987137 0.027875062 -0.05031134 0.05268219
-0.015640225 0.07435908 -0.02005797 0.020757375 0.013534719 0.0102192825 -0.08280711 0.08189619
0.04281175 0.023052612 0.06833704 0.03890965 0.03290229 0.05592022 0.053695913 -0.010048285
0.05888692 -0.011400595 -0.0047262977 -0.06261028 0.045508135 0.022687357 0.017614737 -0.028222218
-0.0013377381 -0.01594352 -0.0076962137 -0.041540843 -0.0037918375 -0.048165172 0.023879064 0.008125507
0.030052623 -0.036296017 0.051358987 -0.013935079 -0.026289852 -0.053814616 -0.009297533 0.057098944
0.09776895 -0.016655356 0.048632946 -0.0058944044 -0.001438011 -0.0060189394 -0.0735954 0.0020914983
-0.035996795 -0.0038815003 0.030623013 0.028677922 -0.054801654 -0.009510685 -0.023877658 0.038477156
0.03240326 -0.0052480455 0.029470885 -0.040374253 0.045928665 0.031126713 -0.013308323 0.002484879
0.0022209375 0.037713453 0.0041092085 -0.006558041 0.020551728 -0.030477315 -0.021810438 0.036064398
0.06450665 0.06850943 0.011040362 0.026582692 0.0352233 0.012865199 -0.07055711 -0.028546305
-0.0046820226 -0.0337841 -0.0014660796 -0.012716729 0.015181468 0.02873943 -0.057663713 -0.018000087
0.028821154 -0.021434467 -0.0113208275 -0.08518643 -0.010352417 0.0003429888 -0.00893883 -0.012595831
0.007695832 0.008944531 0.03315187 -0.182285 -0.02199473 0.028059179 0.045532696 -0.0106143365
-0.0433594 -0.04301979 0.038443755 0.06810669 0.0001575462 -0.0046015834 -0.018112643 -0.04035313
0.05010477 -0.03623369 0.023648081 0.028000101 0.013349054 0.0033323083 -0.05327866 0.014039615
-0.013825086 -0.0075636613 0.037417267 0.035166487 0.06782852 0.010378717 0.0643539 -0.025750346
-0.08198438 0.0558006 0.0068834852 0.010242409 0.0061080246 0.002597772 -0.07131559 -0.05932093
-0.04758047 0.074096896 0.07546534 0.048715554 -0.07161561 -0.0048754197 -0.07578325 0.008468717
-0.003890245 0.0764465 -0.10003928 0.07646443 -0.005889052 0.048340764 -0.049574424 -0.07102713
0.070392475 -0.023463666 -0.054374937 -0.052975055 0.0046605235 -0.05274142 0.095467284 -0.009456912
0.08166146 -0.05288735 0.020945761 0.033954497 -0.09505666 0.09032714 0.00499642 0.057709783
0.012524074 0.062321573 -0.059560157 -0.025927752 -0.0013180448 0.00849186 0.10472033 -0.072337955
0.043132123 0.01385238 0.18651749 0.017639175 0.019867985 0.09644979 0.035760593 -0.07279616
0.028057171 0.068960406 -0.0891928 -0.17965767 -0.0027630192 -0.033446725 -7.091952e-05 -0.06254512
-0.024877494 0.039372604 -0.014316042 -0.0026472965 -0.06454034 -0.017754462 0.007435668 -0.015370045
0.069713324 -0.025767818 -0.04637588 0.027992455 0.066132724 0.052581266 -0.08138363 -0.06136857
0.032482572 0.035344537 -0.07113957 -0.007805611 0.010110082 0.035479665 0.09077683 -0.07978529

bias f4 [12]
00000000: 2927 263d 92e8 97bd 9c21 cd3d 6a4f d43d
00000010: 52d0 90bc 63dc 11be 5364 96bc 005d dd3d
00000020: 75cf 1b3e 015f 9bba 2e1e 333e b43a af3e
0.04056469 -0.07417406 0.10016176 0.103667095 -0.01767746 -0.14244227 -0.018358385 0.10808754
0.15215857 -0.0011853875 0.17491981 0.34224474
